layer {
  name: "first_img"
  type: "Input"
  top: "first_img"
  top: "second_img"
  top: "first_label"
  top: "second_label"
  input_param {
    shape {
      dim: 1
      dim: 3
      dim: 224
      dim: 224
    }
    shape {
      dim: 1
      dim: 3
      dim: 500
      dim: 500
    }
    shape {
      dim: 1
      dim: 1
      dim: 224
      dim: 224
    }
    shape {
      dim: 1
      dim: 1
      dim: 500
      dim: 500
    }
  }
}
layer {
  name: "tiled_first_label"
  type: "Tile"
  bottom: "first_label"
  top: "tiled_first_label"
  tile_param {
    axis: 1
    tiles: 3
  }
}
layer {
  name: "first_input"
  type: "Scale"
  bottom: "first_img"
  bottom: "tiled_first_label"
  top: "first_input"
  scale_param {
    axis: 0
  }
}
layer {
  name: "conv1_1f"
  type: "Convolution"
  bottom: "first_input"
  top: "conv1_1f"
  param {
    lr_mult: 0.1
    decay_mult: 1
  }
  param {
    lr_mult: 0.2
    decay_mult: 0
  }
  convolution_param {
    num_output: 64
    pad: 1
    kernel_size: 3
    engine: CUDNN
  }
}
layer {
  name: "relu1_1f"
  type: "ReLU"
  bottom: "conv1_1f"
  top: "conv1_1f"
}
layer {
  name: "conv1_2f"
  type: "Convolution"
  bottom: "conv1_1f"
  top: "conv1_2f"
  param {
    lr_mult: 0.1
    decay_mult: 1
  }
  param {
    lr_mult: 0.2
    decay_mult: 0
  }
  convolution_param {
    num_output: 64
    pad: 1
    kernel_size: 3
    engine: CUDNN
  }
}
layer {
  name: "relu1_2f"
  type: "ReLU"
  bottom: "conv1_2f"
  top: "conv1_2f"
}
layer {
  name: "pool1f"
  type: "Pooling"
  bottom: "conv1_2f"
  top: "pool1f"
  pooling_param {
    pool: MAX
    kernel_size: 2
    stride: 2
  }
}
layer {
  name: "conv2_1f"
  type: "Convolution"
  bottom: "pool1f"
  top: "conv2_1f"
  param {
    lr_mult: 0.1
    decay_mult: 1
  }
  param {
    lr_mult: 0.2
    decay_mult: 0
  }
  convolution_param {
    num_output: 128
    pad: 1
    kernel_size: 3
    engine: CUDNN
  }
}
layer {
  name: "relu2_1f"
  type: "ReLU"
  bottom: "conv2_1f"
  top: "conv2_1f"
}
layer {
  name: "conv2_2f"
  type: "Convolution"
  bottom: "conv2_1f"
  top: "conv2_2f"
  param {
    lr_mult: 0.1
    decay_mult: 1
  }
  param {
    lr_mult: 0.2
    decay_mult: 0
  }
  convolution_param {
    num_output: 128
    pad: 1
    kernel_size: 3
    engine: CUDNN
  }
}
layer {
  name: "relu2_2f"
  type: "ReLU"
  bottom: "conv2_2f"
  top: "conv2_2f"
}
layer {
  name: "pool2f"
  type: "Pooling"
  bottom: "conv2_2f"
  top: "pool2f"
  pooling_param {
    pool: MAX
    kernel_size: 2
    stride: 2
  }
}
layer {
  name: "conv3_1f"
  type: "Convolution"
  bottom: "pool2f"
  top: "conv3_1f"
  param {
    lr_mult: 0.1
    decay_mult: 1
  }
  param {
    lr_mult: 0.2
    decay_mult: 0
  }
  convolution_param {
    num_output: 256
    pad: 1
    kernel_size: 3
    engine: CUDNN
  }
}
layer {
  name: "relu3_1f"
  type: "ReLU"
  bottom: "conv3_1f"
  top: "conv3_1f"
}
layer {
  name: "conv3_2f"
  type: "Convolution"
  bottom: "conv3_1f"
  top: "conv3_2f"
  param {
    lr_mult: 0.1
    decay_mult: 1
  }
  param {
    lr_mult: 0.2
    decay_mult: 0
  }
  convolution_param {
    num_output: 256
    pad: 1
    kernel_size: 3
    engine: CUDNN
  }
}
layer {
  name: "relu3_2f"
  type: "ReLU"
  bottom: "conv3_2f"
  top: "conv3_2f"
}
layer {
  name: "conv3_3f"
  type: "Convolution"
  bottom: "conv3_2f"
  top: "conv3_3f"
  param {
    lr_mult: 0.1
    decay_mult: 1
  }
  param {
    lr_mult: 0.2
    decay_mult: 0
  }
  convolution_param {
    num_output: 256
    pad: 1
    kernel_size: 3
    engine: CUDNN
  }
}
layer {
  name: "relu3_3f"
  type: "ReLU"
  bottom: "conv3_3f"
  top: "conv3_3f"
}
layer {
  name: "pool3f"
  type: "Pooling"
  bottom: "conv3_3f"
  top: "pool3f"
  pooling_param {
    pool: MAX
    kernel_size: 2
    stride: 2
  }
}
layer {
  name: "conv4_1f"
  type: "Convolution"
  bottom: "pool3f"
  top: "conv4_1f"
  param {
    lr_mult: 0.1
    decay_mult: 1
  }
  param {
    lr_mult: 0.2
    decay_mult: 0
  }
  convolution_param {
    num_output: 512
    pad: 1
    kernel_size: 3
    engine: CUDNN
  }
}
layer {
  name: "relu4_1f"
  type: "ReLU"
  bottom: "conv4_1f"
  top: "conv4_1f"
}
layer {
  name: "conv4_2f"
  type: "Convolution"
  bottom: "conv4_1f"
  top: "conv4_2f"
  param {
    lr_mult: 0.1
    decay_mult: 1
  }
  param {
    lr_mult: 0.2
    decay_mult: 0
  }
  convolution_param {
    num_output: 512
    pad: 1
    kernel_size: 3
    engine: CUDNN
  }
}
layer {
  name: "relu4_2f"
  type: "ReLU"
  bottom: "conv4_2f"
  top: "conv4_2f"
}
layer {
  name: "conv4_3f"
  type: "Convolution"
  bottom: "conv4_2f"
  top: "conv4_3f"
  param {
    lr_mult: 0.1
    decay_mult: 1
  }
  param {
    lr_mult: 0.2
    decay_mult: 0
  }
  convolution_param {
    num_output: 512
    pad: 1
    kernel_size: 3
    engine: CUDNN
  }
}
layer {
  name: "relu4_3f"
  type: "ReLU"
  bottom: "conv4_3f"
  top: "conv4_3f"
}
layer {
  name: "pool4f"
  type: "Pooling"
  bottom: "conv4_3f"
  top: "pool4f"
  pooling_param {
    pool: MAX
    kernel_size: 2
    stride: 2
  }
}
layer {
  name: "conv5_1f"
  type: "Convolution"
  bottom: "pool4f"
  top: "conv5_1f"
  param {
    lr_mult: 0.1
    decay_mult: 1
  }
  param {
    lr_mult: 0.2
    decay_mult: 0
  }
  convolution_param {
    num_output: 512
    pad: 1
    kernel_size: 3
    engine: CUDNN
  }
}
layer {
  name: "relu5_1f"
  type: "ReLU"
  bottom: "conv5_1f"
  top: "conv5_1f"
}
layer {
  name: "conv5_2f"
  type: "Convolution"
  bottom: "conv5_1f"
  top: "conv5_2f"
  param {
    lr_mult: 0.1
    decay_mult: 1
  }
  param {
    lr_mult: 0.2
    decay_mult: 0
  }
  convolution_param {
    num_output: 512
    pad: 1
    kernel_size: 3
    engine: CUDNN
  }
}
layer {
  name: "relu5_2f"
  type: "ReLU"
  bottom: "conv5_2f"
  top: "conv5_2f"
}
layer {
  name: "conv5_3f"
  type: "Convolution"
  bottom: "conv5_2f"
  top: "conv5_3f"
  param {
    lr_mult: 0.1
    decay_mult: 1
  }
  param {
    lr_mult: 0.2
    decay_mult: 0
  }
  convolution_param {
    num_output: 512
    pad: 1
    kernel_size: 3
    engine: CUDNN
  }
}
layer {
  name: "relu5_3f"
  type: "ReLU"
  bottom: "conv5_3f"
  top: "conv5_3f"
}
layer {
  name: "pool5f"
  type: "Pooling"
  bottom: "conv5_3f"
  top: "pool5f"
  pooling_param {
    pool: MAX
    kernel_size: 2
    stride: 2
  }
}
layer {
  name: "conv1_1s"
  type: "Convolution"
  bottom: "second_img"
  top: "conv1_1s"
  param {
    name: "conv1_1_w"
    lr_mult: 1.0
    decay_mult: 1
  }
  param {
    name: "conv1_1_b"
    lr_mult: 2.0
    decay_mult: 0
  }
  convolution_param {
    num_output: 64
    pad: 121
    kernel_size: 3
    engine: CUDNN
  }
}
layer {
  name: "relu1_1s"
  type: "ReLU"
  bottom: "conv1_1s"
  top: "conv1_1s"
}
layer {
  name: "conv1_2s"
  type: "Convolution"
  bottom: "conv1_1s"
  top: "conv1_2s"
  param {
    name: "conv1_2_w"
    lr_mult: 1.0
    decay_mult: 1
  }
  param {
    name: "conv1_2_b"
    lr_mult: 2.0
    decay_mult: 0
  }
  convolution_param {
    num_output: 64
    pad: 1
    kernel_size: 3
    engine: CUDNN
  }
}
layer {
  name: "relu1_2s"
  type: "ReLU"
  bottom: "conv1_2s"
  top: "conv1_2s"
}
layer {
  name: "pool1s"
  type: "Pooling"
  bottom: "conv1_2s"
  top: "pool1s"
  pooling_param {
    pool: MAX
    kernel_size: 2
    stride: 2
  }
}
layer {
  name: "conv2_1s"
  type: "Convolution"
  bottom: "pool1s"
  top: "conv2_1s"
  param {
    name: "conv2_1_w"
    lr_mult: 1.0
    decay_mult: 1
  }
  param {
    name: "conv2_1_b"
    lr_mult: 2.0
    decay_mult: 0
  }
  convolution_param {
    num_output: 128
    pad: 1
    kernel_size: 3
    engine: CUDNN
  }
}
layer {
  name: "relu2_1s"
  type: "ReLU"
  bottom: "conv2_1s"
  top: "conv2_1s"
}
layer {
  name: "conv2_2s"
  type: "Convolution"
  bottom: "conv2_1s"
  top: "conv2_2s"
  param {
    name: "conv2_2_w"
    lr_mult: 1.0
    decay_mult: 1
  }
  param {
    name: "conv2_2_b"
    lr_mult: 2.0
    decay_mult: 0
  }
  convolution_param {
    num_output: 128
    pad: 1
    kernel_size: 3
    engine: CUDNN
  }
}
layer {
  name: "relu2_2s"
  type: "ReLU"
  bottom: "conv2_2s"
  top: "conv2_2s"
}
layer {
  name: "pool2s"
  type: "Pooling"
  bottom: "conv2_2s"
  top: "pool2s"
  pooling_param {
    pool: MAX
    kernel_size: 2
    stride: 2
  }
}
layer {
  name: "conv3_1s"
  type: "Convolution"
  bottom: "pool2s"
  top: "conv3_1s"
  param {
    name: "conv3_1_w"
    lr_mult: 1.0
    decay_mult: 1
  }
  param {
    name: "conv3_1_b"
    lr_mult: 2.0
    decay_mult: 0
  }
  convolution_param {
    num_output: 256
    pad: 1
    kernel_size: 3
    engine: CUDNN
  }
}
layer {
  name: "relu3_1s"
  type: "ReLU"
  bottom: "conv3_1s"
  top: "conv3_1s"
}
layer {
  name: "conv3_2s"
  type: "Convolution"
  bottom: "conv3_1s"
  top: "conv3_2s"
  param {
    name: "conv3_2_w"
    lr_mult: 1.0
    decay_mult: 1
  }
  param {
    name: "conv3_2_b"
    lr_mult: 2.0
    decay_mult: 0
  }
  convolution_param {
    num_output: 256
    pad: 1
    kernel_size: 3
    engine: CUDNN
  }
}
layer {
  name: "relu3_2s"
  type: "ReLU"
  bottom: "conv3_2s"
  top: "conv3_2s"
}
layer {
  name: "conv3_3s"
  type: "Convolution"
  bottom: "conv3_2s"
  top: "conv3_3s"
  param {
    name: "conv3_3_w"
    lr_mult: 1.0
    decay_mult: 1
  }
  param {
    name: "conv3_3_b"
    lr_mult: 2.0
    decay_mult: 0
  }
  convolution_param {
    num_output: 256
    pad: 1
    kernel_size: 3
    engine: CUDNN
  }
}
layer {
  name: "relu3_3s"
  type: "ReLU"
  bottom: "conv3_3s"
  top: "conv3_3s"
}
layer {
  name: "pool3s"
  type: "Pooling"
  bottom: "conv3_3s"
  top: "pool3s"
  pooling_param {
    pool: MAX
    kernel_size: 2
    stride: 2
  }
}
layer {
  name: "conv4_1s"
  type: "Convolution"
  bottom: "pool3s"
  top: "conv4_1s"
  param {
    name: "conv4_1_w"
    lr_mult: 1.0
    decay_mult: 1
  }
  param {
    name: "conv4_1_b"
    lr_mult: 2.0
    decay_mult: 0
  }
  convolution_param {
    num_output: 512
    pad: 1
    kernel_size: 3
    engine: CUDNN
  }
}
layer {
  name: "relu4_1s"
  type: "ReLU"
  bottom: "conv4_1s"
  top: "conv4_1s"
}
layer {
  name: "conv4_2s"
  type: "Convolution"
  bottom: "conv4_1s"
  top: "conv4_2s"
  param {
    name: "conv4_2_w"
    lr_mult: 1.0
    decay_mult: 1
  }
  param {
    name: "conv4_2_b"
    lr_mult: 2.0
    decay_mult: 0
  }
  convolution_param {
    num_output: 512
    pad: 1
    kernel_size: 3
    engine: CUDNN
  }
}
layer {
  name: "relu4_2s"
  type: "ReLU"
  bottom: "conv4_2s"
  top: "conv4_2s"
}
layer {
  name: "conv4_3s"
  type: "Convolution"
  bottom: "conv4_2s"
  top: "conv4_3s"
  param {
    name: "conv4_3_w"
    lr_mult: 1.0
    decay_mult: 1
  }
  param {
    name: "conv4_3_b"
    lr_mult: 2.0
    decay_mult: 0
  }
  convolution_param {
    num_output: 512
    pad: 1
    kernel_size: 3
    engine: CUDNN
  }
}
layer {
  name: "relu4_3s"
  type: "ReLU"
  bottom: "conv4_3s"
  top: "conv4_3s"
}
layer {
  name: "pool4s"
  type: "Pooling"
  bottom: "conv4_3s"
  top: "pool4s"
  pooling_param {
    pool: MAX
    kernel_size: 2
    stride: 2
  }
}
layer {
  name: "conv5_1s"
  type: "Convolution"
  bottom: "pool4s"
  top: "conv5_1s"
  param {
    name: "conv5_1_w"
    lr_mult: 1.0
    decay_mult: 1
  }
  param {
    name: "conv5_1_b"
    lr_mult: 2.0
    decay_mult: 0
  }
  convolution_param {
    num_output: 512
    pad: 1
    kernel_size: 3
    engine: CUDNN
  }
}
layer {
  name: "relu5_1s"
  type: "ReLU"
  bottom: "conv5_1s"
  top: "conv5_1s"
}
layer {
  name: "conv5_2s"
  type: "Convolution"
  bottom: "conv5_1s"
  top: "conv5_2s"
  param {
    name: "conv5_2_w"
    lr_mult: 1.0
    decay_mult: 1
  }
  param {
    name: "conv5_2_b"
    lr_mult: 2.0
    decay_mult: 0
  }
  convolution_param {
    num_output: 512
    pad: 1
    kernel_size: 3
    engine: CUDNN
  }
}
layer {
  name: "relu5_2s"
  type: "ReLU"
  bottom: "conv5_2s"
  top: "conv5_2s"
}
layer {
  name: "conv5_3s"
  type: "Convolution"
  bottom: "conv5_2s"
  top: "conv5_3s"
  param {
    name: "conv5_3_w"
    lr_mult: 1.0
    decay_mult: 1
  }
  param {
    name: "conv5_3_b"
    lr_mult: 2.0
    decay_mult: 0
  }
  convolution_param {
    num_output: 512
    pad: 1
    kernel_size: 3
    engine: CUDNN
  }
}
layer {
  name: "relu5_3s"
  type: "ReLU"
  bottom: "conv5_3s"
  top: "conv5_3s"
}
layer {
  name: "pool5s"
  type: "Pooling"
  bottom: "conv5_3s"
  top: "pool5s"
  pooling_param {
    pool: MAX
    kernel_size: 2
    